…
    "    color_mode=color_mode,\n",
    "    batch_size=batch_size,\n",
    "    class_mode='categorical',\n",
    "    subset='validation') # set as validation data\n",
    "\n"
   ]
  },
  {
   "cell_type": "code",
   "execution_count": 6,
   "metadata": {},
   "outputs": [
    {
     "name": "stdout",
     "output_type": "stream",
     "text": [
      "_________________________________________________________________\n",
      "Layer (type)                 Output Shape              Param #   \n",
      "=================================================================\n",
      "conv2d_4 (Conv2D)            (None, 510, 766, 32)      320       \n",
      "_________________________________________________________________\n",
      "activation_7 (Activation)    (None, 510, 766, 32)      0         \n",
      "_________________________________________________________________\n",
      "max_pooling2d_4 (MaxPooling2 (None, 255, 383, 32)      0         \n",
      "_________________________________________________________________\n",
      "conv2d_5 (Conv2D)            (None, 253, 381, 32)      9248      \n",
      "_________________________________________________________________\n",
      "activation_8 (Activation)    (None, 253, 381, 32)      0         \n",
      "_________________________________________________________________\n",
      "max_pooling2d_5 (MaxPooling2 (None, 126, 190, 32)      0         \n",
      "_________________________________________________________________\n",
      "conv2d_6 (Conv2D)            (None, 124, 188, 32)      9248      \n",
      "_________________________________________________________________\n",
      "activation_9 (Activation)    (None, 124, 188, 32)      0         \n",
      "_________________________________________________________________\n",
      "max_pooling2d_6 (MaxPooling2 (None, 62, 94, 32)        0         \n",
      "_________________________________________________________________\n",
      "conv2d_7 (Conv2D)            (None, 60, 92, 64)        18496     \n",
      "_________________________________________________________________\n",
      "activation_10 (Activation)   (None, 60, 92, 64)        0         \n",
      "_________________________________________________________________\n",
      "max_pooling2d_7 (MaxPooling2 (None, 2, 3, 64)          0         \n",
      "_________________________________________________________________\n",
      "flatten_2 (Flatten)          (None, 384)               0         \n",
      "_________________________________________________________________\n",
      "dense_4 (Dense)              (None, 100)               38500     \n",
      "_________________________________________________________________\n",
      "activation_11 (Activation)   (None, 100)               0         \n",
      "_________________________________________________________________\n",
      "dropout_3 (Dropout)          (None, 100)               0         \n",
      "_________________________________________________________________\n",
      "dense_5 (Dense)              (None, 50)                5050      \n",
      "_________________________________________________________________\n",
      "activation_12 (Activation)   (None, 50)                0         \n",
      "_________________________________________________________________\n",
      "dropout_4 (Dropout)          (None, 50)                0         \n",
      "_________________________________________________________________\n",
      "dense_6 (Dense)              (None, 10)                510       \n",
      "_________________________________________________________________\n",
      "activation_13 (Activation)   (None, 10)                0         \n",
      "=================================================================\n",
      "Total params: 81,372\n",
      "Trainable params: 81,372\n",
      "Non-trainable params: 0\n",
      "_________________________________________________________________\n",
      "None\n"
     ]
    }
   ],
   "source": [
    "# X = X.reshape((1,) + x.shape)  # this is a Numpy array with shape (1, 3, 150, 150)\n",
…
